…
                                 kernel_initializer=keras.initializers.he_normal(seed=None),
                                 bias_initializer='zeros'))

    model.compile(loss='sparse_categorical_crossentropy',
                  optimizer=tf.keras.optimizers.Adam(learning_rate=0.0001, amsgrad=False)
                  , metrics=['acc'])

    return model


"""
Model: "sequential"
_________________________________________________________________
 Layer (type)                Output Shape              Param #   
=================================================================
 conv2d (Conv2D)             (None, 15, 15, 96)        4704      
                                                                 
 conv2d_1 (Conv2D)           (None, 15, 15, 96)        83040     
                                                                 
 conv2d_2 (Conv2D)           (None, 15, 15, 96)        83040     
                                                                 
 conv2d_3 (Conv2D)           (None, 15, 15, 96)        83040     
                                                                 
 max_pooling2d (MaxPooling2D  (None, 8, 8, 96)         0         
 )                                                               
                                                                 
 conv2d_4 (Conv2D)           (None, 6, 6, 192)         166080    
                                                                 
 conv2d_5 (Conv2D)           (None, 4, 4, 192)         331968    
                                                                 
 conv2d_6 (Conv2D)           (None, 2, 2, 192)         331968    
                                                                 
 flatten (Flatten)           (None, 768)               0         
                                                                 
 dense (Dense)               (None, 768)               590592    
                                                                 
 dense_1 (Dense)             (None, 2)                 1538      
                                                                 
=================================================================
Total params: 1,675,970
Trainable params: 1,675,970
Non-trainable params: 0
_________________________________________________________________
"""





# File: /home/qrbao/Downloads/code/code/baoqiruitask/A2/genetic_algorithm.py
import os
import cv2
import numpy as np
…
    model.compile(optimizer='adam',
                  loss=tf.keras.losses.SparseCategoricalCrossentropy(from_logits=True),
                  metrics=['accuracy'])

    model.fit(train_images, train_labels, epochs=10,
                        validation_data=(test_images, test_labels),callbacks=[history, tensorboard])
    history.loss_plot('epoch')
"""
Model: "sequential"
_________________________________________________________________
Layer (type)                 Output Shape              Param #   
=================================================================
conv2d (Conv2D)              (None, 30, 30, 32)        896       
_________________________________________________________________
max_pooling2d (MaxPooling2D) (None, 15, 15, 32)        0         
_________________________________________________________________
conv2d_1 (Conv2D)            (None, 13, 13, 64)        18496     
_________________________________________________________________
max_pooling2d_1 (MaxPooling2 (None, 6, 6, 64)          0         
_________________________________________________________________
conv2d_2 (Conv2D)            (None, 4, 4, 64)          36928     
_________________________________________________________________
flatten (Flatten)            (None, 1024)              0         
_________________________________________________________________
dense (Dense)                (None, 64)                65600     
_________________________________________________________________
dense_1 (Dense)              (None, 20)                1300      
=================================================================
Total params: 123,220
Trainable params: 123,220
Non-trainable params: 0
_________________________________________________________________

"""




# File: /home/qrbao/Downloads/code/code/coderesearch2/coderesearch1copy/creature.py
# creature.py
import pygame
import random
import math
import constants
from abc import ABC, abstractmethod
…
